…
            description will also be appended (if emphasis_mode = 'append') or the entries 
            will be replaced: all the transitions k < i such that the sum of reward from
            k to i is positive will have the next-state replaced by the state at transition
            at index i. And the rewards will also be replaced by the summation from k to i.
            currently, emphasis-mode is replace.
            if disjoint=True, then k is limited to the index of the last berry seen
            currently disjoint behaviour is set to False

total-params:  4617
net(
  (feedforward): ModuleList(
    (0): Linear(in_features=38, out_features=16, bias=True)
    (1): Linear(in_features=16, out_features=8, bias=True)
  )
  (conv1): ModuleList(
    (0): Conv2d(1, 4, kernel_size=(4, 4), stride=(2, 2), padding=(3, 3))
    (1): MaxPool2d(kernel_size=2, stride=2, padding=0, dilation=1, ceil_mode=False)
    (2): Conv2d(4, 8, kernel_size=(3, 3), stride=(2, 2), padding=(3, 3))
    (3): MaxPool2d(kernel_size=2, stride=2, padding=0, dilation=1, ceil_mode=False)
    (4): Conv2d(8, 8, kernel_size=(2, 2), stride=(2, 2), padding=(1, 1))
  )
  (conv2): ModuleList(
    (0): Conv2d(1, 4, kernel_size=(4, 4), stride=(2, 2), padding=(3, 3))
    (1): MaxPool2d(kernel_size=2, stride=2, padding=0, dilation=1, ceil_mode=False)
    (2): Conv2d(4, 8, kernel_size=(3, 3), stride=(2, 2), padding=(3, 3))
    (3): MaxPool2d(kernel_size=2, stride=2, padding=0, dilation=1, ceil_mode=False)
    (4): Conv2d(8, 8, kernel_size=(2, 2), stride=(2, 2), padding=(1, 1))
  )
  (final_stage): ModuleList(
    (0): Linear(in_features=152, out_features=16, bias=True)
  )
  (valueL): Linear(in_features=16, out_features=1, bias=True)
  (actadvs): Linear(in_features=16, out_features=8, bias=True)
)
lr used = 0.00005
Using greedy strategy as evalExplortionStrategy.
episode: 0 -> reward: -25.002604166666426, steps:9601, time-elasped: 60.84s
-> berries picked: 0 of 500 | patches-visited: [0] | positive-in-buffer: 0 | amount-filled: 17.46%
	| approx positives in sample 256: 0
episode: 1 -> reward: -25.002604166666462, steps:10273, time-elasped: 125.94s
…
