…
	 reward_patch_discovery : False
	 debug : False
	 debugDir : .temp


The state-transitions being appended 
            every action will be as [[state, action, sum-reward, nextState, done]] where:
            state is the one the model has taken action on,
            sum-reward is the sum of the rewards in the skip-trajectory,
            nextState is the new state after the action was repeated at most skip-steps times,
            done is wether the terminal state was reached.
agent now aware of total-juice
seperate conv-nets for berry and path memory
total-params:  10641
net(
  (feedforward): ModuleList(
    (0): Linear(in_features=39, out_features=16, bias=True)
    (1): LeakyReLU(negative_slope=0.1)
    (2): Linear(in_features=16, out_features=8, bias=True)
    (3): LeakyReLU(negative_slope=0.1)
  )
  (memory_conv1): ModuleList(
    (0): Conv2d(1, 8, kernel_size=(4, 4), stride=(2, 2), padding=(3, 3))
    (1): MaxPool2d(kernel_size=2, stride=2, padding=0, dilation=1, ceil_mode=False)
    (2): LeakyReLU(negative_slope=0.1)
    (3): Conv2d(8, 16, kernel_size=(3, 3), stride=(2, 2), padding=(2, 2))
    (4): LeakyReLU(negative_slope=0.1)
    (5): Conv2d(16, 16, kernel_size=(3, 3), stride=(2, 2), padding=(1, 1))
    (6): MaxPool2d(kernel_size=2, stride=2, padding=0, dilation=1, ceil_mode=False)
    (7): LeakyReLU(negative_slope=0.1)
  )
  (memory_conv2): ModuleList(
    (0): Conv2d(1, 8, kernel_size=(4, 4), stride=(2, 2), padding=(3, 3))
    (1): MaxPool2d(kernel_size=2, stride=2, padding=0, dilation=1, ceil_mode=False)
    (2): LeakyReLU(negative_slope=0.1)
    (3): Conv2d(8, 16, kernel_size=(3, 3), stride=(2, 2), padding=(2, 2))
    (4): LeakyReLU(negative_slope=0.1)
    (5): Conv2d(16, 16, kernel_size=(3, 3), stride=(2, 2), padding=(1, 1))
    (6): MaxPool2d(kernel_size=2, stride=2, padding=0, dilation=1, ceil_mode=False)
    (7): LeakyReLU(negative_slope=0.1)
  )
  (final_stage): ModuleList(
    (0): Linear(in_features=136, out_features=16, bias=True)
    (1): LeakyReLU(negative_slope=0.1)
    (2): Linear(in_features=16, out_features=16, bias=True)
    (3): LeakyReLU(negative_slope=0.1)
  )
  (valueL): Linear(in_features=16, out_features=1, bias=True)
  (actadvs): Linear(in_features=16, out_features=8, bias=True)
)
lr used = 0.00002, num_gradient_steps= 500
optimizing the online-model after every 2000 actions
batch size=512, gamma=0.8, alpha=0.96
polyak_tau=0.1, update_freq=5
episode: 0/2000 -> reward: -249.99999999998332, steps:49920, time-taken: 2.32min, time-elasped: 2.32min
-> berries picked: 7 of 800 | patches-visited: [6, 8] | juice left:-0.00
	| epsilon: 0.5
…
